chat_data.pth (torch, 4519 bytes, 6 tensors)

l1.weight f4 [8, 39]
0	0x3ed6b987	0.4193842
1	0x3f35407a	0.7080151
2	0xbe8467ca	-0.25860435
3	0x3f309ad3	0.68986243
4	0x3f241c14	0.64105344
5	0x3f175f48	0.5912976
6	0x3f1cd4ba	0.61262095
7	0x3eb9182e	0.3615126
8	0xbf04861e	-0.51767147
9	0x3f158715	0.58409244
10	0x3e6dd559	0.23225917
11	0x3f05f0aa	0.5232035
12	0xbe5ab51d	-0.21358152
13	0x3f125f11	0.5717631
14	0xbeccff2c	-0.4003843
15	0x3f0472b4	0.51737523
16	0x3f0a8c87	0.5412068
17	0x3ee46815	0.44610658
18	0xbe28df27	-0.16491376
19	0x3f2be910	0.671525
20	0x3f0866e4	0.53282
21	0x3ead8dc4	0.3389722
22	0x3e5b76d7	0.21432053
23	0x3e1eff1a	0.15527001
24	0xbe1d18b4	-0.15341455
25	0xbf527437	-0.8220858
26	0x3c82b255	0.015954176
27	0x3f01c6ea	0.50694144
28	0x3f2d34d7	0.6765875
29	0x3edd7775	0.432552
30	0x3e0d4c52	0.13798645
31	0x3f0984a2	0.53718007
32	0xbf0486e5	-0.5176833
33	0x3ebee2ce	0.37282413
34	0xbf193d8a	-0.59859526
35	0xbe023bf2	-0.1271818
36	0x3ecefe1d	0.40428248
37	0xbe285341	-0.16438009
38	0x3effc013	0.49951228
39	0x3f0201dd	0.50784093
40	0x3f2d504c	0.6770065
41	0xbf14b2a3	-0.5808508
42	0x3f0f1251	0.55887324
43	0x3f0b0706	0.5430759
44	0x3f20c6b1	0.6280318
45	0x3ec74d36	0.38926095
46	0x3f0a4443	0.5401041
47	0x3efb63e1	0.4909964
48	0x3e9c7fe6	0.3056633
49	0xbe108f10	-0.14117074
50	0x3ec6bb2f	0.38814685
51	0xbf2a0c30	-0.66424847
52	0x3f075612	0.5286571
53	0x3ec287b7	0.37994167
54	0x3eff0ef3	0.49816093
55	0x3f28a0cc	0.65870357
56	0x3f708d6b	0.93965787
57	0x3ef67655	0.48137155
58	0x3f1d3458	0.61407995
59	0xbed45fe8	-0.4147942
60	0xbe63d7e5	-0.22250326
61	0xbd9258d9	-0.071458526
62	0xbead5981	-0.3385735
63	0xbeb84910	-0.35993242
64	0x3ee05e67	0.43822023
65	0x3ec572b6	0.3856408
66	0x3eb9c230	0.36280966
67	0x3eda0b8a	0.4258693
68	0x3ea5e87e	0.3240394
69	0xbec0c794	-0.37652266
70	0xbee2ba41	-0.44282725
71	0x3e1b1605	0.15145119
72	0xbdf754b7	-0.12076705
73	0x3f57e307	0.8433079
74	0x3f1a3678	0.6023936
75	0xbe84c1ee	-0.25929207
76	0x3eb2611c	0.34839714
77	0xbea963aa	-0.3308385
78	0x3c0e72ad	0.008694333
79	0x3e9bde8b	0.30443224
80	0x3f205c0a	0.6264044
81	0x3ee79d13	0.45237026
82	0x3d938032	0.07202186
83	0x3e930121	0.287118
84	0x3d3266e7	0.043555167
85	0xbdc88694	-0.09791294
86	0xbdbd35f1	-0.09238804
87	0x3efdfb0f	0.49605605
88	0x3f31c877	0.6944651
89	0xbe95132e	-0.29116195
90	0x3eba874f	0.36431357
91	0xbecc9a56	-0.399615
92	0x3ee9ab8a	0.45638686
93	0xbeca15e0	-0.39469814
94	0xbebbebe7	-0.36703417
95	0xbec63dfa	-0.3871916
96	0xbe6a2fa2	-0.22869733
97	0xbec1a68a	-0.37822372
98	0x3edf8941	0.43659404
99	0x3f303a66	0.6883911
100	0x3e659798	0.2242111
101	0x3f333a5e	0.70010936
102	0x3ea5e5ce	0.3240189
103	0xbcc16927	-0.02360971
104	0x3d3bcf6d	0.045852114
105	0x3d894782	0.06703092
106	0x3e6f5fde	0.23376414
107	0x3e2ea757	0.17056023
108	0x3ea5d650	0.3239007
109	0x3eb0df30	0.3454528
110	0xbd2f1b6b	-0.042750757
111	0x3f6cd98b	0.92519444
112	0x3f1a00a7	0.60157245
113	0x3edc1e74	0.42991984
114	0x3ec7e760	0.39043713
115	0xbdc40cee	-0.09572779
116	0x3eacc9ef	0.33747813
117	0xbef3a53b	-0.47586998
118	0xbe742240	-0.2384119
119	0xbef6c7a6	-0.48199195
120	0xbe832aed	-0.25618687
121	0xbea492c6	-0.3214323
122	0xbe8093d2	-0.25112778
123	0xbeeb6091	-0.45972112
124	0xbe0405ec	-0.12892884
125	0x3f074665	0.5284179
126	0x3e9a7755	0.30169168
127	0x3ef68ff3	0.481567
128	0xbe848232	-0.2588058
129	0xbee92007	-0.45532247
130	0xbeb4a58b	-0.3528255
131	0x3f0a4161	0.5400601
132	0xbeb73558	-0.35782886
133	0xbeb97858	-0.36224627
134	0x3d845944	0.064623386
135	0xbc5827d3	-0.013193089
136	0xbea937e9	-0.3305047
137	0xbe27a7e6	-0.16372642
138	0x3f32868d	0.6973656
139	0xbd2b9d17	-0.04189786
140	0x3f0950eb	0.53639096
141	0xbe8cf8e1	-0.2753363
142	0x3f1c0464	0.609442
143	0x3ee10455	0.43948618
144	0xbe9d9c6b	-0.307834
145	0xbe04f8b1	-0.12985493
146	0xbda98b3e	-0.082785115
147	0xbe499e3e	-0.19689271
148	0xbe23932b	-0.15974109
149	0x3f027f3b	0.5097539
150	0x3f257cdb	0.6464364
151	0x3f58c150	0.8466997
152	0x3f292540	0.66072464
153	0xbe8e2a3a	-0.2776659
154	0x3e6e2a3b	0.23258297
155	0xbe899357	-0.26870224
156	0xbe82889c	-0.2549485
157	0xbef819b0	-0.48457098
158	0x3f394e51	0.72385126
159	0xbf023301	-0.50859076
160	0xbee127d9	-0.43975714
161	0xbefff039	-0.49987963
162	0xbe2424d7	-0.16029678
163	0x3eaf56e1	0.3424597
164	0x3f3cd405	0.73761016
165	0xbec4da92	-0.38448006
166	0xbecfd41a	-0.40591508
167	0x3ec4852f	0.3838286
168	0x3f08d8e5	0.53455955
169	0x3ee6b83d	0.45062438
170	0xbe6a44ac	-0.22877759
171	0x3f049e14	0.5180371
172	0x3f0411e6	0.5158981
173	0x3f424992	0.7589351
174	0x3eaac307	0.3335192
175	0x3ee99bc6	0.45626658
176	0xbddcb423	-0.10776546
177	0xbeccacd7	-0.39975616
178	0x3cb7ec44	0.022451527
179	0xbe4d4f44	-0.20049769
180	0x3f06e02d	0.52685815
181	0x3ed6a41a	0.41922075
182	0xbe8e77c4	-0.2782575
183	0xbeb0d5e4	-0.34538186
184	0xbeafe01c	-0.3435067
185	0xbedb8d41	-0.42881206
186	0x3eeb89e9	0.46003655
187	0xbea05fde	-0.3132314
188	0x3f07b4d8	0.5301032
189	0xbf141e70	-0.57858944
190	0xbf39b05b	-0.7253472
191	0xbe7b847f	-0.24562262
192	0xbd92f84e	-0.071762666
193	0x3eb256ba	0.34831792
194	0xbe14420e	-0.14478323
195	0x3ecb2f81	0.3968468
196	0x3f3bb8c7	0.7332882
197	0x3e0bb10f	0.13641761
198	0x3e93cb85	0.2886621
199	0x3f08e634	0.5347626
200	0x3f015e7b	0.5053479
201	0x3f1d86df	0.6153392
202	0xbea0a1ff	-0.31373593
203	0x3f040b29	0.5157953
204	0x3eb366a8	0.35039258
205	0xbe692e0d	-0.22771473
206	0xbe6ca47a	-0.23109618
207	0x3d17f5b4	0.037099555
208	0xbef27c82	-0.47360617
209	0x3ece07c2	0.40240294
210	0xbee4fb70	-0.44723082
211	0xbef38c01	-0.47567752
212	0xbe257f8e	-0.1616194
213	0x3f1568eb	0.5836322
214	0xbeef4d5a	-0.46738702
215	0x3eb9e354	0.3630625
216	0xbeaa4a85	-0.3325998
217	0x3de272cd	0.11057053
218	0xbec7953a	-0.38981038
219	0x3e8c0426	0.27346915
220	0x3edca4dd	0.4309453
221	0x3eee5349	0.46547917
222	0x3f17e6c4	0.59336495
223	0x3ed65a90	0.4186597
224	0x3ef11821	0.4708872
225	0x3e804fcc	0.2506088
226	0x3e946a3c	0.289873
227	0x3ecf6e04	0.40513623
228	0xbeaf002b	-0.34179816
229	0x3f4a97f5	0.7913812
230	0x3ed736fe	0.42034143
231	0x3e9d4680	0.3071785
232	0x3ebcedc5	0.36900154
233	0x3e741868	0.23837435
234	0x3da85b60	0.082205534
235	0xbe51b88c	-0.20480555
236	0xbe39dbd6	-0.18150267
237	0xbe4e98cd	-0.20175476
238	0x3d9fedae	0.07809006
239	0xbe445a86	-0.19175157
240	0xbdeeb7c7	-0.116561465
241	0xbe531e0a	-0.20616928
242	0x3efd08f4	0.49420893
243	0xbe0b27b8	-0.1358937
244	0xbe1d25c3	-0.15346436
245	0xbe54b585	-0.20772369
246	0xbe4559a3	-0.19272475
247	0xbed5e87b	-0.4177893
248	0x3e56d0a0	0.20978022
249	0xbed55869	-0.41669014
250	0xbed74476	-0.4204442
251	0x3dc29998	0.09501952
252	0x3f006259	0.50150067
253	0xbed69cb9	-0.41916445
254	0x3f53a234	0.8266938
255	0xbe8e7bcc	-0.27828825

l1.bias f4 [8]
0	0x3f64c6d5	0.89365894
1	0x3f3ecf05	0.74534637
2	0x3ed54fa5	0.41662326
3	0x3ef6b0cf	0.4818177
4	0x3f7c0624	0.9844687
5	0x3f11bb36	0.56926286
6	0x3ee08472	0.43851048
7	0x3f0fc8d3	0.5616581

l2.weight f4 [8, 8]
0	0x3fb8f5f0	1.4450054
1	0x3f1564df	0.5835704
2	0xbf0e9576	-0.5569681
3	0xbf5d2c81	-0.8639603
4	0x3f8ad5ec	1.0846534
5	0xbceeaa29	-0.029133873
6	0xbf09e2d4	-0.5386174
7	0x3de8f734	0.11375275
8	0x3ec5e28b	0.386494
9	0x3f1c8875	0.61145717
10	0x3d5028f7	0.050820317
11	0xbf1510f2	-0.5822898
12	0xbf90d673	-1.1315445
13	0x3fb1914e	1.3872468
14	0x3f9689df	1.1760825
15	0xbc5a78a7	-0.01333443
16	0x3e57fe06	0.21092996
17	0x3f1e0a87	0.61734813
18	0x3cf5fa9f	0.030026732
19	0x3fc932c1	1.5718614
20	0x3ed2b84d	0.41156235
21	0xbf7cd3a0	-0.98760414
22	0x3f50b593	0.8152706
23	0xbe98a97d	-0.2981681
24	0x3f16bc11	0.58880717
25	0x3e1d9340	0.15388203
26	0xbf68f210	-0.9099436
27	0xbd8eca4a	-0.06972177
28	0x3f2ba8ba	0.6705433
29	0xbd7750c8	-0.060379773
30	0x3f83a26e	1.0283945
31	0xbeb705b3	-0.35746536
32	0xbf375608	-0.7161565
33	0x3fbf0d43	1.4925922
34	0xbf30bcee	-0.69038284
35	0x3f6115f3	0.87924117
36	0x3f2c372e	0.672717
37	0x3f8347c1	1.0256273
38	0x3e387057	0.18011604
39	0xbe5a1226	-0.21295986
40	0x3faa43bd	1.3301922
41	0x3f0065bf	0.5015525
42	0x3f9bb566	1.2164733
43	0x3f614e21	0.8800984
44	0xbf8c61be	-1.0967329
45	0x3f0bf791	0.5467463
46	0x3df6b9ac	0.12047133
47	0xbf3a40c9	-0.72755104
48	0xbdf0b9f2	-0.11754216
49	0xbe7abcc4	-0.24486071
50	0xbe859a23	-0.2609416
51	0x3e01d254	0.1267789
52	0xbe27e46a	-0.16395727
53	0xbe64085c	-0.22268814
54	0x3d8f7fb4	0.07006779
55	0xbe32d637	-0.17464529
56	0xbec56790	-0.38555574
57	0xbef0c027	-0.470216
58	0x3e891747	0.26775572
59	0x3db7a2d0	0.08966601
60	0x3f5a1b5c	0.85198
61	0x3f39b4e0	0.7254162
62	0x3f8f823b	1.1211618
63	0x3fbebb66	1.490094

l2.bias f4 [8]
0	0x3f165b87	0.5873341
1	0x3e8bdb1b	0.27315602
2	0xbbf3acdd	-0.0074363784
3	0xbe4bb07d	-0.19891544
4	0x3eaf051c	0.34183586
5	0x3ed8a664	0.42314446
6	0xbe7e5d38	-0.24840248
7	0x3e53a5e9	0.20668758

l3.weight f4 [7, 8]
0	0xbf7be667	-0.9839844
1	0xbe983be2	-0.29733187
2	0x3e93e358	0.28884387
3	0x3f2cdcb1	0.6752425
4	0x3f4d49b1	0.8019057
5	0xbfb31a7c	-1.3992457
6	0xbe90ff46	-0.28319758
7	0x3d99a575	0.075022615
8	0xbf80f30f	-1.0074176
9	0xbe84560d	-0.25846902
10	0x3f6c3013	0.92260855
11	0xbf6369c4	-0.8883326
12	0xbf728a02	-0.94741833
13	0x3f816b5a	1.0110886
14	0x3e90536f	0.28188655
15	0xbfc1bcd5	-1.5135752
16	0x3e9d1a4b	0.30684122
17	0xbf8cc79a	-1.0998414
18	0xbfed7d55	-1.8553873
19	0xbe1490aa	-0.1450831
20	0xbdce3c19	-0.100700565
21	0xbf8e6a6a	-1.1126225
22	0x3ea0597f	0.3131828
23	0x3f484cba	0.78242075
24	0x3f8589e9	1.0432712
25	0xbf4f6f7e	-0.810295
26	0x3ed2f074	0.41199076
27	0x3ed256b0	0.41081762
28	0x3e9a924d	0.30189744
29	0xbee09de3	-0.43870458
30	0x3e1d574e	0.15365335
31	0xbfb31b14	-1.3992639
32	0xbf392cbc	-0.72333884
33	0x3f1e145b	0.6174981
34	0xbebc9bac	-0.36837518
35	0x3eeb8e03	0.46006784
36	0xbfa2792f	-1.2693232
37	0x3e2bba91	0.16770388
38	0xbdaf3e38	-0.08556789
39	0x3e83cf6d	0.2574419
40	0x3e7648eb	0.24051253
41	0x3f54005e	0.8281306
42	0xbfc8f9e7	-1.5701264
43	0xbee7b785	-0.45257202
44	0x3c2b3573	0.010449755
45	0x3eb5ef82	0.35534292
46	0xbe97f280	-0.296772
47	0xbfcf58d0	-1.6198978
48	0xbfc89239	-1.5669624
49	0x3eec54ac	0.4615835
50	0x3e83e0df	0.257575
51	0xbf7a8157	-0.97853607
52	0x3f3c96ff	0.736679
53	0x3e33c28d	0.17554684
54	0xbe1a89aa	-0.15091577
55	0xbeb896a4	-0.3605243

l3.bias f4 [7]
0	0xbf07c5ed	-0.53036386
1	0x3e670576	0.22560677
2	0x3eb77d4b	0.35837778
3	0x3e9bf2f8	0.30458808
4	0xbe8b0f57	-0.2716014
5	0xbea92d90	-0.33042574
6	0xbdcab8c7	-0.09898525
